…
Some weights of ViTModel were not initialized from the model checkpoint at google/vit-large-patch16-224 and are newly initialized: ['vit.pooler.dense.weight', 'vit.pooler.dense.bias']
You should probably TRAIN this model on a down-stream task to be able to use it for predictions and inference.
Namespace(batch_size=16, dataset='glv2_s', epochs=5, labels_file='./glv2_labels.csv', lr=1e-05, model_name='google/vit-large-patch16-224', num_negatives=2, print_freq=1000, resume='', use_GeM=True, use_hnm=False, workers=4)
ViTModel(
  (embeddings): ViTEmbeddings(
    (patch_embeddings): ViTPatchEmbeddings(
      (projection): Conv2d(3, 1024, kernel_size=(16, 16), stride=(16, 16))
    )
    (dropout): Dropout(p=0.0, inplace=False)
  )
  (encoder): ViTEncoder(
    (layer): ModuleList(
      (0-23): 24 x ViTLayer(
        (attention): ViTAttention(
          (attention): ViTSelfAttention(
            (query): Linear(in_features=1024, out_features=1024, bias=True)
            (key): Linear(in_features=1024, out_features=1024, bias=True)
            (value): Linear(in_features=1024, out_features=1024, bias=True)
            (dropout): Dropout(p=0.0, inplace=False)
          )
          (output): ViTSelfOutput(
            (dense): Linear(in_features=1024, out_features=1024, bias=True)
            (dropout): Dropout(p=0.0, inplace=False)
          )
        )
        (intermediate): ViTIntermediate(
          (dense): Linear(in_features=1024, out_features=4096, bias=True)
          (intermediate_act_fn): GELUActivation()
        )
        (output): ViTOutput(
          (dense): Linear(in_features=4096, out_features=1024, bias=True)
          (dropout): Dropout(p=0.0, inplace=False)
        )
        (layernorm_before): LayerNorm((1024,), eps=1e-12, elementwise_affine=True)
        (layernorm_after): LayerNorm((1024,), eps=1e-12, elementwise_affine=True)
      )
    )
  )
  (layernorm): LayerNorm((1024,), eps=1e-12, elementwise_affine=True)
  (pooler): GGeM()
)
SentiGLV2Definition dataset loaded
  subset   | # ids | # images
  ---------------------------
  train    | 138520 |   138520
  gallery  |  10000 |    10000
  query    |   1129 |     1129
True
cuda:0
Epochs:   0%|          | 0/5 [00:00<?, ?it/s]lr:  1e-05
Not using HNM
batch_size 16

Training:   0%|          | 0/8658 [00:00<?, ?it/s][A
…
