…
Some weights of ViTModel were not initialized from the model checkpoint at google/vit-large-patch16-224 and are newly initialized: ['vit.pooler.dense.weight', 'vit.pooler.dense.bias']
You should probably TRAIN this model on a down-stream task to be able to use it for predictions and inference.
train dataset:  DatasetDict({
    train: Dataset({
        features: ['image'],
        num_rows: 100000
    })
    test: Dataset({
        features: ['image'],
        num_rows: 10000
    })
    validation: Dataset({
        features: ['image'],
        num_rows: 100000
    })
})
ViTModel(
  (embeddings): ViTEmbeddings(
    (patch_embeddings): ViTPatchEmbeddings(
      (projection): Conv2d(3, 1024, kernel_size=(16, 16), stride=(16, 16))
    )
    (dropout): Dropout(p=0.0, inplace=False)
  )
  (encoder): ViTEncoder(
    (layer): ModuleList(
      (0-23): 24 x ViTLayer(
        (attention): ViTAttention(
          (attention): ViTSelfAttention(
            (query): Linear(in_features=1024, out_features=1024, bias=True)
            (key): Linear(in_features=1024, out_features=1024, bias=True)
            (value): Linear(in_features=1024, out_features=1024, bias=True)
            (dropout): Dropout(p=0.0, inplace=False)
          )
          (output): ViTSelfOutput(
            (dense): Linear(in_features=1024, out_features=1024, bias=True)
            (dropout): Dropout(p=0.0, inplace=False)
          )
        )
        (intermediate): ViTIntermediate(
          (dense): Linear(in_features=1024, out_features=4096, bias=True)
          (intermediate_act_fn): GELUActivation()
        )
        (output): ViTOutput(
          (dense): Linear(in_features=4096, out_features=1024, bias=True)
          (dropout): Dropout(p=0.0, inplace=False)
        )
        (layernorm_before): LayerNorm((1024,), eps=1e-12, elementwise_affine=True)
        (layernorm_after): LayerNorm((1024,), eps=1e-12, elementwise_affine=True)
      )
    )
  )
  (layernorm): LayerNorm((1024,), eps=1e-12, elementwise_affine=True)
  (pooler): GGeM()
)
Map:   0%|          | 0/10000 [00:00<?, ? examples/s]Map:   0%|          | 32/10000 [00:13<1:08:43,  2.42 examples/s]Map:   1%|          | 64/10000 [00:14<31:10,  5.31 examples/s]  Map:   1%|          | 96/10000 [00:14<18:38,  8.86 examples/s]Map:   1%|▏         | 128/10000 [00:15<12:49, 12.83 examples/s]Map:   2%|▏         | 
…
