…
Loading cached processed dataset at /scratch/lustre/home/auma4493/.cache/huggingface/datasets/imagefolder/disc21-next-final-453d375012a0d071/0.0.0/37fbb85cc714a338bea574ac6c7d0b5be5aff46c1862c1989b20e0771199e93f/cache-2dc7ab532ff81254.arrow
train dataset:  DatasetDict({
    train: Dataset({
        features: ['image'],
        num_rows: 100000
    })
    test: Dataset({
        features: ['image'],
        num_rows: 10000
    })
    validation: Dataset({
        features: ['image'],
        num_rows: 100000
    })
})
ViTModel(
  (embeddings): ViTEmbeddings(
    (patch_embeddings): ViTPatchEmbeddings(
      (projection): Conv2d(3, 1024, kernel_size=(16, 16), stride=(16, 16))
    )
    (dropout): Dropout(p=0.0, inplace=False)
  )
  (encoder): ViTEncoder(
    (layer): ModuleList(
      (0-23): 24 x ViTLayer(
        (attention): ViTAttention(
          (attention): ViTSelfAttention(
            (query): Linear(in_features=1024, out_features=1024, bias=True)
            (key): Linear(in_features=1024, out_features=1024, bias=True)
            (value): Linear(in_features=1024, out_features=1024, bias=True)
            (dropout): Dropout(p=0.0, inplace=False)
          )
          (output): ViTSelfOutput(
            (dense): Linear(in_features=1024, out_features=1024, bias=True)
            (dropout): Dropout(p=0.0, inplace=False)
          )
        )
        (intermediate): ViTIntermediate(
          (dense): Linear(in_features=1024, out_features=4096, bias=True)
          (intermediate_act_fn): GELUActivation()
        )
        (output): ViTOutput(
          (dense): Linear(in_features=4096, out_features=1024, bias=True)
          (dropout): Dropout(p=0.0, inplace=False)
        )
        (layernorm_before): LayerNorm((1024,), eps=1e-12, elementwise_affine=True)
        (layernorm_after): LayerNorm((1024,), eps=1e-12, elementwise_affine=True)
      )
    )
  )
  (layernorm): LayerNorm((1024,), eps=1e-12, elementwise_affine=True)
  (pooler): GGeM()
)
query_embeddings tensor([[0.3073, 0.3630, 0.0439,  ..., 0.0798, 0.5237, 0.2197],
        [0.5689, 0.7335, 0.0590,  ..., 0.2384, 0.4415, 0.4761],
        [0.3837, 0.2540, 0.0706,  ..., 0.2042, 0.7803, 0.6480],
        ...,
        [0.1176, 0.3248, 0.0839,  ..., 0.0889, 0.3604, 0.5232],
        [0.2664, 0.1641, 0.2095,  ..., 0.0481, 0.5171, 0.3619],
…
