…
Loading cached processed dataset at /scratch/lustre/home/auma4493/.cache/huggingface/datasets/imagefolder/glv2-next-final-f1222a0f34855ac2/0.0.0/37fbb85cc714a338bea574ac6c7d0b5be5aff46c1862c1989b20e0771199e93f/cache-2ffe55ef5f3bafb6.arrow
train dataset:  DatasetDict({
    train: Dataset({
        features: ['image'],
        num_rows: 138520
    })
    test: Dataset({
        features: ['image'],
        num_rows: 1129
    })
    validation: Dataset({
        features: ['image'],
        num_rows: 10000
    })
})
ViTModel(
  (embeddings): ViTEmbeddings(
    (patch_embeddings): ViTPatchEmbeddings(
      (projection): Conv2d(3, 1024, kernel_size=(16, 16), stride=(16, 16))
    )
    (dropout): Dropout(p=0.0, inplace=False)
  )
  (encoder): ViTEncoder(
    (layer): ModuleList(
      (0-23): 24 x ViTLayer(
        (attention): ViTAttention(
          (attention): ViTSelfAttention(
            (query): Linear(in_features=1024, out_features=1024, bias=True)
            (key): Linear(in_features=1024, out_features=1024, bias=True)
            (value): Linear(in_features=1024, out_features=1024, bias=True)
            (dropout): Dropout(p=0.0, inplace=False)
          )
          (output): ViTSelfOutput(
            (dense): Linear(in_features=1024, out_features=1024, bias=True)
            (dropout): Dropout(p=0.0, inplace=False)
          )
        )
        (intermediate): ViTIntermediate(
          (dense): Linear(in_features=1024, out_features=4096, bias=True)
          (intermediate_act_fn): GELUActivation()
        )
        (output): ViTOutput(
          (dense): Linear(in_features=4096, out_features=1024, bias=True)
          (dropout): Dropout(p=0.0, inplace=False)
        )
        (layernorm_before): LayerNorm((1024,), eps=1e-12, elementwise_affine=True)
        (layernorm_after): LayerNorm((1024,), eps=1e-12, elementwise_affine=True)
      )
    )
  )
  (layernorm): LayerNorm((1024,), eps=1e-12, elementwise_affine=True)
  (pooler): GGeM()
)
query_embeddings tensor([[0.3889, 0.1474, 0.1764,  ..., 0.6740, 0.3867, 0.3795],
        [0.6493, 0.8558, 0.2176,  ..., 1.0108, 0.2549, 0.7862],
        [1.0584, 0.2483, 0.3221,  ..., 0.8996, 0.6657, 1.0093],
        ...,
        [0.2556, 0.7126, 0.1072,  ..., 0.3667, 0.1175, 0.7511],
        [0.5632, 0.4021, 0.1453,  ..., 0.3368, 0.6434, 0.8142],
…
