…
Loading cached processed dataset at /scratch/lustre/home/auma4493/.cache/huggingface/datasets/imagefolder/disc21-next-final-453d375012a0d071/0.0.0/37fbb85cc714a338bea574ac6c7d0b5be5aff46c1862c1989b20e0771199e93f/cache-723a56ce8df40c8e.arrow
train dataset:  DatasetDict({
    train: Dataset({
        features: ['image'],
        num_rows: 100000
    })
    test: Dataset({
        features: ['image'],
        num_rows: 10000
    })
    validation: Dataset({
        features: ['image'],
        num_rows: 100000
    })
})
ViTModel(
  (embeddings): ViTEmbeddings(
    (patch_embeddings): ViTPatchEmbeddings(
      (projection): Conv2d(3, 1024, kernel_size=(16, 16), stride=(16, 16))
    )
    (dropout): Dropout(p=0.0, inplace=False)
  )
  (encoder): ViTEncoder(
    (layer): ModuleList(
      (0-23): 24 x ViTLayer(
        (attention): ViTAttention(
          (attention): ViTSelfAttention(
            (query): Linear(in_features=1024, out_features=1024, bias=True)
            (key): Linear(in_features=1024, out_features=1024, bias=True)
            (value): Linear(in_features=1024, out_features=1024, bias=True)
            (dropout): Dropout(p=0.0, inplace=False)
          )
          (output): ViTSelfOutput(
            (dense): Linear(in_features=1024, out_features=1024, bias=True)
            (dropout): Dropout(p=0.0, inplace=False)
          )
        )
        (intermediate): ViTIntermediate(
          (dense): Linear(in_features=1024, out_features=4096, bias=True)
          (intermediate_act_fn): GELUActivation()
        )
        (output): ViTOutput(
          (dense): Linear(in_features=4096, out_features=1024, bias=True)
          (dropout): Dropout(p=0.0, inplace=False)
        )
        (layernorm_before): LayerNorm((1024,), eps=1e-12, elementwise_affine=True)
        (layernorm_after): LayerNorm((1024,), eps=1e-12, elementwise_affine=True)
      )
    )
  )
  (layernorm): LayerNorm((1024,), eps=1e-12, elementwise_affine=True)
  (pooler): GGeM()
)
query_embeddings tensor([[0.1364, 0.6529, 0.2527,  ..., 0.4096, 0.4019, 0.4194],
        [0.1489, 0.4362, 0.1213,  ..., 0.4161, 0.2743, 0.3040],
        [0.3795, 0.4808, 0.1307,  ..., 0.5001, 0.4429, 0.2850],
        ...,
        [0.1242, 0.3570, 0.2302,  ..., 0.3849, 0.1755, 0.4530],
        [0.0783, 0.5518, 0.3012,  ..., 0.1986, 0.0693, 0.6731],
…
