…
Loading cached processed dataset at /scratch/lustre/home/auma4493/.cache/huggingface/datasets/imagefolder/glv2-next-final-f1222a0f34855ac2/0.0.0/37fbb85cc714a338bea574ac6c7d0b5be5aff46c1862c1989b20e0771199e93f/cache-c1f35281a92bdc85.arrow
train dataset:  DatasetDict({
    train: Dataset({
        features: ['image'],
        num_rows: 138520
    })
    test: Dataset({
        features: ['image'],
        num_rows: 1129
    })
    validation: Dataset({
        features: ['image'],
        num_rows: 10000
    })
})
ViTModel(
  (embeddings): ViTEmbeddings(
    (patch_embeddings): ViTPatchEmbeddings(
      (projection): Conv2d(3, 1024, kernel_size=(16, 16), stride=(16, 16))
    )
    (dropout): Dropout(p=0.0, inplace=False)
  )
  (encoder): ViTEncoder(
    (layer): ModuleList(
      (0-23): 24 x ViTLayer(
        (attention): ViTAttention(
          (attention): ViTSelfAttention(
            (query): Linear(in_features=1024, out_features=1024, bias=True)
            (key): Linear(in_features=1024, out_features=1024, bias=True)
            (value): Linear(in_features=1024, out_features=1024, bias=True)
            (dropout): Dropout(p=0.0, inplace=False)
          )
          (output): ViTSelfOutput(
            (dense): Linear(in_features=1024, out_features=1024, bias=True)
            (dropout): Dropout(p=0.0, inplace=False)
          )
        )
        (intermediate): ViTIntermediate(
          (dense): Linear(in_features=1024, out_features=4096, bias=True)
          (intermediate_act_fn): GELUActivation()
        )
        (output): ViTOutput(
          (dense): Linear(in_features=4096, out_features=1024, bias=True)
          (dropout): Dropout(p=0.0, inplace=False)
        )
        (layernorm_before): LayerNorm((1024,), eps=1e-12, elementwise_affine=True)
        (layernorm_after): LayerNorm((1024,), eps=1e-12, elementwise_affine=True)
      )
    )
  )
  (layernorm): LayerNorm((1024,), eps=1e-12, elementwise_affine=True)
  (pooler): GGeM()
)
query_embeddings tensor([[0.1953, 0.3069, 0.0237,  ..., 0.3379, 0.3394, 0.4707],
        [0.7085, 0.3503, 0.0280,  ..., 0.5640, 0.2242, 0.6019],
        [0.7195, 0.3813, 0.2029,  ..., 0.5397, 0.5890, 1.0301],
        ...,
        [0.2441, 0.6746, 0.0597,  ..., 0.3135, 0.1185, 0.5013],
        [0.2261, 0.2416, 0.0606,  ..., 0.2586, 0.5652, 0.8358],
…
