…
Loading cached processed dataset at /scratch/lustre/home/auma4493/.cache/huggingface/datasets/imagefolder/glv2-next-final-f1222a0f34855ac2/0.0.0/37fbb85cc714a338bea574ac6c7d0b5be5aff46c1862c1989b20e0771199e93f/cache-989755b24182dd63.arrow
train dataset:  DatasetDict({
    train: Dataset({
        features: ['image'],
        num_rows: 138520
    })
    test: Dataset({
        features: ['image'],
        num_rows: 1129
    })
    validation: Dataset({
        features: ['image'],
        num_rows: 10000
    })
})
ViTModel(
  (embeddings): ViTEmbeddings(
    (patch_embeddings): ViTPatchEmbeddings(
      (projection): Conv2d(3, 1024, kernel_size=(16, 16), stride=(16, 16))
    )
    (dropout): Dropout(p=0.0, inplace=False)
  )
  (encoder): ViTEncoder(
    (layer): ModuleList(
      (0-23): 24 x ViTLayer(
        (attention): ViTAttention(
          (attention): ViTSelfAttention(
            (query): Linear(in_features=1024, out_features=1024, bias=True)
            (key): Linear(in_features=1024, out_features=1024, bias=True)
            (value): Linear(in_features=1024, out_features=1024, bias=True)
            (dropout): Dropout(p=0.0, inplace=False)
          )
          (output): ViTSelfOutput(
            (dense): Linear(in_features=1024, out_features=1024, bias=True)
            (dropout): Dropout(p=0.0, inplace=False)
          )
        )
        (intermediate): ViTIntermediate(
          (dense): Linear(in_features=1024, out_features=4096, bias=True)
          (intermediate_act_fn): GELUActivation()
        )
        (output): ViTOutput(
          (dense): Linear(in_features=4096, out_features=1024, bias=True)
          (dropout): Dropout(p=0.0, inplace=False)
        )
        (layernorm_before): LayerNorm((1024,), eps=1e-12, elementwise_affine=True)
        (layernorm_after): LayerNorm((1024,), eps=1e-12, elementwise_affine=True)
      )
    )
  )
  (layernorm): LayerNorm((1024,), eps=1e-12, elementwise_affine=True)
  (pooler): GGeM()
)
query_embeddings tensor([[0.3375, 0.8480, 0.2649,  ..., 0.2861, 0.2416, 0.2711],
        [0.5956, 0.1957, 0.6235,  ..., 0.1857, 0.4271, 0.3176],
        [0.9207, 0.8172, 0.4170,  ..., 0.7083, 1.0180, 0.3181],
        ...,
        [0.5867, 0.3837, 0.2667,  ..., 0.5407, 0.3979, 0.5086],
        [0.9355, 1.2144, 0.5717,  ..., 0.7442, 0.6275, 0.8495],
…
