…
Loading cached processed dataset at /scratch/lustre/home/auma4493/.cache/huggingface/datasets/imagefolder/glv2-next-final-f1222a0f34855ac2/0.0.0/37fbb85cc714a338bea574ac6c7d0b5be5aff46c1862c1989b20e0771199e93f/cache-0373e7d6fab11be5.arrow
train dataset:  DatasetDict({
    train: Dataset({
        features: ['image'],
        num_rows: 138520
    })
    test: Dataset({
        features: ['image'],
        num_rows: 1129
    })
    validation: Dataset({
        features: ['image'],
        num_rows: 10000
    })
})
ViTModel(
  (embeddings): ViTEmbeddings(
    (patch_embeddings): ViTPatchEmbeddings(
      (projection): Conv2d(3, 1024, kernel_size=(16, 16), stride=(16, 16))
    )
    (dropout): Dropout(p=0.0, inplace=False)
  )
  (encoder): ViTEncoder(
    (layer): ModuleList(
      (0-23): 24 x ViTLayer(
        (attention): ViTAttention(
          (attention): ViTSelfAttention(
            (query): Linear(in_features=1024, out_features=1024, bias=True)
            (key): Linear(in_features=1024, out_features=1024, bias=True)
            (value): Linear(in_features=1024, out_features=1024, bias=True)
            (dropout): Dropout(p=0.0, inplace=False)
          )
          (output): ViTSelfOutput(
            (dense): Linear(in_features=1024, out_features=1024, bias=True)
            (dropout): Dropout(p=0.0, inplace=False)
          )
        )
        (intermediate): ViTIntermediate(
          (dense): Linear(in_features=1024, out_features=4096, bias=True)
          (intermediate_act_fn): GELUActivation()
        )
        (output): ViTOutput(
          (dense): Linear(in_features=4096, out_features=1024, bias=True)
          (dropout): Dropout(p=0.0, inplace=False)
        )
        (layernorm_before): LayerNorm((1024,), eps=1e-12, elementwise_affine=True)
        (layernorm_after): LayerNorm((1024,), eps=1e-12, elementwise_affine=True)
      )
    )
  )
  (layernorm): LayerNorm((1024,), eps=1e-12, elementwise_affine=True)
  (pooler): GGeM()
)
query_embeddings tensor([[0.3832, 0.3020, 0.2280,  ..., 1.1055, 0.2828, 0.4474],
        [0.7779, 0.7883, 0.4389,  ..., 0.9485, 0.1490, 0.5417],
        [1.0301, 0.2564, 0.7087,  ..., 1.1254, 0.6102, 0.9040],
        ...,
        [0.2020, 0.6082, 0.1723,  ..., 0.7167, 0.0228, 0.4617],
        [0.5620, 0.3153, 0.3129,  ..., 0.7341, 0.6087, 0.5954],
…
