…
Loading cached processed dataset at /scratch/lustre/home/auma4493/.cache/huggingface/datasets/imagefolder/disc21-next-final-453d375012a0d071/0.0.0/37fbb85cc714a338bea574ac6c7d0b5be5aff46c1862c1989b20e0771199e93f/cache-4f9b0521ee5df22b.arrow
train dataset:  DatasetDict({
    train: Dataset({
        features: ['image'],
        num_rows: 100000
    })
    test: Dataset({
        features: ['image'],
        num_rows: 10000
    })
    validation: Dataset({
        features: ['image'],
        num_rows: 100000
    })
})
ViTModel(
  (embeddings): ViTEmbeddings(
    (patch_embeddings): ViTPatchEmbeddings(
      (projection): Conv2d(3, 1024, kernel_size=(16, 16), stride=(16, 16))
    )
    (dropout): Dropout(p=0.0, inplace=False)
  )
  (encoder): ViTEncoder(
    (layer): ModuleList(
      (0-23): 24 x ViTLayer(
        (attention): ViTAttention(
          (attention): ViTSelfAttention(
            (query): Linear(in_features=1024, out_features=1024, bias=True)
            (key): Linear(in_features=1024, out_features=1024, bias=True)
            (value): Linear(in_features=1024, out_features=1024, bias=True)
            (dropout): Dropout(p=0.0, inplace=False)
          )
          (output): ViTSelfOutput(
            (dense): Linear(in_features=1024, out_features=1024, bias=True)
            (dropout): Dropout(p=0.0, inplace=False)
          )
        )
        (intermediate): ViTIntermediate(
          (dense): Linear(in_features=1024, out_features=4096, bias=True)
          (intermediate_act_fn): GELUActivation()
        )
        (output): ViTOutput(
          (dense): Linear(in_features=4096, out_features=1024, bias=True)
          (dropout): Dropout(p=0.0, inplace=False)
        )
        (layernorm_before): LayerNorm((1024,), eps=1e-12, elementwise_affine=True)
        (layernorm_after): LayerNorm((1024,), eps=1e-12, elementwise_affine=True)
      )
    )
  )
  (layernorm): LayerNorm((1024,), eps=1e-12, elementwise_affine=True)
  (pooler): GGeM()
)
query_embeddings tensor([[0.4691, 0.3395, 0.2347,  ..., 0.1709, 0.9684, 0.1389],
        [0.5105, 0.9735, 0.0528,  ..., 0.4240, 0.8932, 0.3083],
        [0.6987, 0.4582, 0.1683,  ..., 0.3730, 1.0542, 0.5209],
        ...,
        [0.1357, 0.7184, 0.2015,  ..., 0.1284, 0.6615, 0.2944],
        [0.3363, 0.2874, 0.2421,  ..., 0.1242, 0.6066, 0.2621],
…
