…
Loading cached processed dataset at /scratch/lustre/home/auma4493/.cache/huggingface/datasets/imagefolder/disc21-next-final-453d375012a0d071/0.0.0/37fbb85cc714a338bea574ac6c7d0b5be5aff46c1862c1989b20e0771199e93f/cache-75943403d7c537e1.arrow
train dataset:  DatasetDict({
    train: Dataset({
        features: ['image'],
        num_rows: 100000
    })
    test: Dataset({
        features: ['image'],
        num_rows: 10000
    })
    validation: Dataset({
        features: ['image'],
        num_rows: 100000
    })
})
ViTModel(
  (embeddings): ViTEmbeddings(
    (patch_embeddings): ViTPatchEmbeddings(
      (projection): Conv2d(3, 1024, kernel_size=(16, 16), stride=(16, 16))
    )
    (dropout): Dropout(p=0.0, inplace=False)
  )
  (encoder): ViTEncoder(
    (layer): ModuleList(
      (0-23): 24 x ViTLayer(
        (attention): ViTAttention(
          (attention): ViTSelfAttention(
            (query): Linear(in_features=1024, out_features=1024, bias=True)
            (key): Linear(in_features=1024, out_features=1024, bias=True)
            (value): Linear(in_features=1024, out_features=1024, bias=True)
            (dropout): Dropout(p=0.0, inplace=False)
          )
          (output): ViTSelfOutput(
            (dense): Linear(in_features=1024, out_features=1024, bias=True)
            (dropout): Dropout(p=0.0, inplace=False)
          )
        )
        (intermediate): ViTIntermediate(
          (dense): Linear(in_features=1024, out_features=4096, bias=True)
          (intermediate_act_fn): GELUActivation()
        )
        (output): ViTOutput(
          (dense): Linear(in_features=4096, out_features=1024, bias=True)
          (dropout): Dropout(p=0.0, inplace=False)
        )
        (layernorm_before): LayerNorm((1024,), eps=1e-12, elementwise_affine=True)
        (layernorm_after): LayerNorm((1024,), eps=1e-12, elementwise_affine=True)
      )
    )
  )
  (layernorm): LayerNorm((1024,), eps=1e-12, elementwise_affine=True)
  (pooler): GGeM()
)
query_embeddings tensor([[3.0817e-01, 1.9176e-01, 2.2895e-01,  ..., 3.4442e-02, 6.3688e-01,
         1.5010e-01],
        [4.4375e-01, 3.9299e-01, 1.0786e-01,  ..., 2.8610e-01, 5.8859e-01,
         3.3711e-01],
        [5.5043e-01, 3.1995e-01, 9.6619e-02,  ..., 1.8490e-01, 9.9031e-01,
         4.5852e-01],
        ...,
        [1.3724e-01, 2.5219e-01, 2.5246e-01,  ..., 1.0000e-06, 7.3547e-01,
…
